
layer{
  name: "eltwise_feat"
  type: "Eltwise"
  bottom: "feat"
  bottom: "feat_std"
  top: "eltwise_feat"
  eltwise_param{
    operation: SUM
    coeff: 1
    coeff: -1
  }
}

layer{
  name: "square"
  type: "Power"
  bottom: "eltwise_feat"
  top: "square"
  power_param{
    power: 2
  }
}

layer{
  name: "label_down8"
  type: "Interp"
  bottom: "label"
  top: "label_down8"
  interp_param{
    height: 32
    width: 32
    # shrink_factor: 8
  }
}


####################

contrastive_loss
bottom[0]: N C
bottom[1]: N C
bottom[2]: N 1

common_contrastive_loss
bottom[0]: N C H W
bottom[0]: N C H W
bottom[0]: N 1 H W

distance_layer:
bottom[0]: N C H W
bottom[1]: N C H W
top: N 1 H W

simple_contrastive_loss:
bottom[0]: N 1 H W
bottom[1]: N 1 H W



layer{
  name: "contrastive_loss"
  type: "CommonContrastiveLoss"
  bottom: "feat"
  bottom: "feat_std"
  bottom: "label"
  top: "contrastive_loss"
  common_contrastive_loss_param{
    margin: 1
  }
}

шо╛шоб





